…
Importing pre-trained weights from ImageNet...
Freezing base model weights...
Building top layers...
Adding FC layer 1: 256 units with relu activation
Adding FC layer 2: 128 units with relu activation
Adding classification layer with 43 classes
Model VGG19 built successfully

--- VGG19 Model Summary ---
Model: "VGG19_transfer"
┏━━━━━━━━━━━━━━━━━━━━━━━━━━━━━━━━━━━┳━━━━━━━━━━━━━━━━━━━━━━━━━━┳━━━━━━━━━━━━━━━┓
┃ Layer (type)                      ┃ Output Shape             ┃       Param # ┃
┡━━━━━━━━━━━━━━━━━━━━━━━━━━━━━━━━━━━╇━━━━━━━━━━━━━━━━━━━━━━━━━━╇━━━━━━━━━━━━━━━┩
│ input_layer (InputLayer)          │ (None, 32, 32, 3)        │             0 │
├───────────────────────────────────┼──────────────────────────┼───────────────┤
│ block1_conv1 (Conv2D)             │ (None, 32, 32, 64)       │         1,792 │
├───────────────────────────────────┼──────────────────────────┼───────────────┤
│ block1_conv2 (Conv2D)             │ (None, 32, 32, 64)       │        36,928 │
├───────────────────────────────────┼──────────────────────────┼───────────────┤
│ block1_pool (MaxPooling2D)        │ (None, 16, 16, 64)       │             0 │
├───────────────────────────────────┼──────────────────────────┼───────────────┤
│ block2_conv1 (Conv2D)             │ (None, 16, 16, 128)      │        73,856 │
├───────────────────────────────────┼──────────────────────────┼───────────────┤
│ block2_conv2 (Conv2D)             │ (None, 16, 16, 128)      │       147,584 │
├───────────────────────────────────┼──────────────────────────┼───────────────┤
│ block2_pool (MaxPooling2D)        │ (None, 8, 8, 128)        │             0 │
├───────────────────────────────────┼──────────────────────────┼───────────────┤
│ block3_conv1 (Conv2D)             │ (None, 8, 8, 256)        │       295,168 │
├───────────────────────────────────┼──────────────────────────┼───────────────┤
│ block3_conv2 (Conv2D)             │ (None, 8, 8, 256)        │       590,080 │
├───────────────────────────────────┼──────────────────────────┼───────────────┤
│ block3_conv3 (Conv2D)             │ (None, 8, 8, 256)        │       590,080 │
├───────────────────────────────────┼──────────────────────────┼───────────────┤
│ block3_conv4 (Conv2D)             │ (None, 8, 8, 256)        │       590,080 │
├───────────────────────────────────┼──────────────────────────┼───────────────┤
│ block3_pool (MaxPooling2D)        │ (None, 4, 4, 256)        │             0 │
├───────────────────────────────────┼──────────────────────────┼───────────────┤
│ block4_conv1 (Conv2D)             │ (None, 4, 4, 512)        │     1,180,160 │
├───────────────────────────────────┼──────────────────────────┼───────────────┤
│ block4_conv2 (Conv2D)             │ (None, 4, 4, 512)        │     2,359,808 │
├───────────────────────────────────┼──────────────────────────┼───────────────┤
│ block4_conv3 (Conv2D)             │ (None, 4, 4, 512)        │     2,359,808 │
├───────────────────────────────────┼──────────────────────────┼───────────────┤
│ block4_conv4 (Conv2D)             │ (None, 4, 4, 512)        │     2,359,808 │
├───────────────────────────────────┼──────────────────────────┼───────────────┤
│ block4_pool (MaxPooling2D)        │ (None, 2, 2, 512)        │             0 │
├───────────────────────────────────┼──────────────────────────┼───────────────┤
│ block5_conv1 (Conv2D)             │ (None, 2, 2, 512)        │     2,359,808 │
├───────────────────────────────────┼──────────────────────────┼───────────────┤
│ block5_conv2 (Conv2D)             │ (None, 2, 2, 512)        │     2,359,808 │
├───────────────────────────────────┼──────────────────────────┼───────────────┤
│ block5_conv3 (Conv2D)             │ (None, 2, 2, 512)        │     2,359,808 │
├───────────────────────────────────┼──────────────────────────┼───────────────┤
│ block5_conv4 (Conv2D)             │ (None, 2, 2, 512)        │     2,359,808 │
├───────────────────────────────────┼──────────────────────────┼───────────────┤
│ block5_pool (MaxPooling2D)        │ (None, 1, 1, 512)        │             0 │
├───────────────────────────────────┼──────────────────────────┼───────────────┤
│ global_average_pooling2d          │ (None, 512)              │             0 │
│ (GlobalAveragePooling2D)          │                          │               │
├───────────────────────────────────┼──────────────────────────┼───────────────┤
│ fc_1 (Dense)                      │ (None, 256)              │       131,328 │
├───────────────────────────────────┼──────────────────────────┼───────────────┤
│ dropout_1 (Dropout)               │ (None, 256)              │             0 │
├───────────────────────────────────┼──────────────────────────┼───────────────┤
│ fc_2 (Dense)                      │ (None, 128)              │        32,896 │
├───────────────────────────────────┼──────────────────────────┼───────────────┤
│ dropout_2 (Dropout)               │ (None, 128)              │             0 │
├───────────────────────────────────┼──────────────────────────┼───────────────┤
│ classification (Dense)            │ (None, 43)               │         5,547 │
└───────────────────────────────────┴──────────────────────────┴───────────────┘
 Total params: 20,194,155 (77.03 MB)
 Trainable params: 169,771 (663.17 KB)
 Non-trainable params: 20,024,384 (76.39 MB)
TensorBoard logs will be saved to: C:\Users\Iryna\Desktop\pyton\IDSS-labs\lab5\logs\fit\VGG19_20250505-213029
Starting training of VGG19...
Epoch 1/5
5437/5437 - 1201s - 221ms/step - accuracy: 0.3131 - loss: 2.2812 - val_accuracy: 0.3435 - val_loss: 1.9841
…
